input/Theta1.npy (npy, 314080 bytes, 1 tensors)

array f8 [50, 785]
00000000: 87de b093 c5f0 1b3f 16db 0903 d2d5 a23f
00000010: 7c67 4729 b110 90bf c749 355a 94b2 b83f
00000020: 54bb 78fe e21f 86bf 21f9 5359 eab3 58bf
00000030: acb9 077d 19c3 babf 7a51 4296 cb21 a63f
00000040: 07e5 5be4 506e acbf 6c65 e826 6a3a 8d3f
00000050: 1b79 9a6b dead 9cbf 498f 3aca 643c 7b3f
00000060: 16e0 a085 6f98 ba3f 9144 5c7f 9448 823f
00000070: 778c 26d8 0d90 b33f 8888 4b8b d9b3 abbf
00000080: 7311 0cb4 2aad abbf 7f37 bd11 003f a03f
00000090: 9f52 801e 31a8 b53f 8d11 3f99 1a02 afbf
000000a0: 3988 8cab 0db5 b6bf c836 31d7 9705 9ebf
000000b0: 809c 78a0 2fda 9a3f 520c 100a 98f9 703f
000000c0: 851d e38f dc6c 9a3f c31a 5c08 a201 bcbf
000000d0: fe7c b279 fb5b b9bf b5b7 eb3c 40c5 a83f
000000e0: 00d0 a1b6 a5bb 993f bf5c a99e 9d8c b3bf
000000f0: f735 0ed8 bc49 aebf 31b3 0d18 c74f 793f
00000100: 1fd1 8f87 38b6 a8bf ef59 81c8 43ef 823f
00000110: 5cc2 ed3e 2ae7 b1bf 9291 e9a5 79e8 9fbf
00000120: 3719 23a6 2b65 b83f 1c3b c50c 3678 b73f
00000130: 1856 31ad 8a09 87bf c4ef 91c9 6d1b b83f
00000140: b468 3bf5 9477 b93f e6d7 9721 c906 853f
00000150: d9cb 1edb 30f9 b6bf 5010 5c1f 1032 86bf
00000160: aed8 e832 891a 98bf 6c84 fee5 f8f8 b33f
00000170: 0499 eea3 c88d 9dbf fa94 8d41 8287 813f
00000180: be03 d453 f23d bbbf b9f1 cc07 f353 aebf
00000190: 142a 581d e336 b83f 750d 0c00 68fb b03f
000001a0: 9f1d bd05 eb2b ae3f bf70 7bc2 b5fb a83f
000001b0: cf4a 7f89 f105 b1bf bbe1 94d0 7ee9 b8bf
000001c0: a9db c5e6 7492 b9bf 4c1d 9905 92cc aabf
000001d0: 267d cb4e 6c40 b6bf f424 beca d9fd 703f
000001e0: e44d b743 775a bdbf 6daf 35a6 08ef a43f
000001f0: 7000 4e49 4778 9ebf 47e5 19ef 255d a53f
00000200: 3771 7969 b6bc b13f 4b17 cd3c dbf6 b7bf
00000210: e6b1 fd4d ca99 b23f 88b0 c934 4bc7 9bbf
00000220: d9cf 2b24 b6ce b7bf 0f5a da06 46d4 b2bf
00000230: d92d 6bf8 4932 bd3f 6e00 cf34 456f b0bf
00000240: cbb7 45c9 8d59 bb3f 4faf 8bf1 b874 bd3f
00000250: 660a 9b9e 72c9 b63f b316 7629 7425 a33f
00000260: dfc3 012c 2ed7 b9bf b700 5a5b 9e6c aabf
00000270: 803c 2a07 7904 bd3f 2583 83c3 7fc5 b3bf
00000280: c5aa 35c7 74db b03f 8a82 19dd 2aa8 86bf
00000290: 9c39 9cab cd64 a6bf b236 92e8 4263 b2bf
000002a0: 30a8 48bd 6475 8cbf 815f 45a5 b29d b3bf
000002b0: a431 8d21 47f4 59bf ca72 4677 01dd b23f
000002c0: 9d3b d685 7be5 a83f 6187 1d63 393e b83f
000002d0: d202 77da 9da6 b23f a2d8 ac8a 3e65 b6bf
000002e0: d25c 19ee d504 97bf 6048 4bc7 e5c8 adbf
000002f0: 09dd 02d9 dad2 bd3f 35b3 da21 8b48 9f3f
00000300: b3aa 9221 22ed c23f 793e 0e91 d67b b43f
00000310: 2cf2 b5fa fbc4 b63f 6dbe 867a 9547 c03f
00000320: 7bbe 09ca c6ae bc3f 82c5 3348 ac11 b63f
00000330: 2293 2655 4276 71bf f985 de81 79eb b43f
00000340: ef68 cc9f 1c2b bd3f a0f3 bf1e fdf0 c13f
00000350: eadd b231 0e90 bd3f daed 5b14 6557 24bf
00000360: cade 1ad2 85cc a9bf b6f2 878e 8a9d ac3f
00000370: c0df f771 e1df b3bf 2cbf 1f9f f4e2 bc3f
00000380: e05d 3ff0 eb8c bb3f da2a 3b83 889d b5bf
00000390: 3c93 6658 1227 babf 784f 5e0c 347b 943f
000003a0: 07e5 ef23 990c bdbf 177b fe83 1d0f 953f
000003b0: f4be df5e 174a a13f f9c8 4565 b088 a0bf
000003c0: 9042 2baa 55eb 8f3f a7da c59f 1e66 bb3f
000003d0: 516d 27c4 163d c03f 8d55 1919 8420 a6bf
000003e0: 7378 a1bc 0767 c43f c49d 63e0 bfc9 b33f
000003f0: 15fb 5154 52bd c23f 95fa 7bff 83d6 c53f
00000400: 1ab8 e593 35d3 cc3f 4ee3 c335 8a0e 91bf
00000410: 631e 6c5a b9d5 823f ca3f aeca 0965 ab3f
00000420: 982e 1dbd 2d35 943f 64f8 c35c df90 92bf
00000430: f469 304b 3e95 a63f a850 1e0d 31a8 88bf
00000440: e784 750e 9135 b4bf 404c 65d7 13c8 b2bf
00000450: 9fd3 8460 d1af ba3f 2028 f2ee 8a99 bdbf
00000460: 4602 82fd c2ea 993f 0e85 f640 3392 b73f
00000470: 87de 00c9 59b5 a73f 5e9e c236 aba6 663f
00000480: 8a20 8ab4 b2b1 babf 9bb4 6ba9 7900 8fbf
00000490: 2fd5 6c08 81a0 be3f 6fca 888e e303 bb3f
000004a0: f9c5 bffa 462e a23f 5fdd ee9a b805 c53f
000004b0: e056 7fd0 3caa c03f f760 c656 4eeb 66bf
000004c0: 8925 6cfc a5dc c33f 1d29 05bd 5a1d b53f
000004d0: 21a9 7259 033a b53f 1e8f 03b9 bd9c ba3f
000004e0: c2c8 4874 c423 ae3f dd93 37d5 e018 c13f
000004f0: 5d5d 9739 8af2 a5bf aaa6 bfed c266 a73f
00000500: 37cf 91db 13b2 7f3f a35d 341e 527f b63f
00000510: 46bd 4f43 9c98 8f3f 2f20 ec11 701b b33f
00000520: 5645 02b7 2673 b3bf cf83 b8b5 9558 843f
00000530: 434f c559 f370 963f 8ab7 8a41 3d06 6cbf
00000540: 1ada 0a79 6ec9 a33f 40cf f4b0 8d18 babf
00000550: b7f5 754c 9908 acbf 2349 932e 404f bd3f
00000560: 2f72 20b4 0a4f 973f a7e3 540f 3432 b2bf
00000570: 4131 21f4 61a3 a4bf 8bcd 4cd8 e0dc b23f
00000580: 9ac5 7e09 bdd3 98bf d892 4e30 85fa a8bf
00000590: 0fd3 9a44 acfc b4bf 8f21 2ff5 9dcc 91bf
000005a0: fd71 1611 78dc b4bf 2dca 9ef1 8a03 ba3f
000005b0: 6650 6bef 87b3 71bf e906 e53e 21a8 91bf
000005c0: 4c29 39d4 3840 ab3f f8a7 1038 9ff3 c4bf
000005d0: 18e1 c7a6 f743 ad3f c9c8 84bd 0789 993f
000005e0: 7b9a 2ea1 cf7e a3bf 63dd ff68 b5b9 a0bf
000005f0: f925 92c2 c2b7 7bbf 5eed 7e8a 2aa4 90bf
00000600: 9e1e 6bae dab1 c3bf 18e8 e6ad ae31 b8bf
00000610: 583f ee6d d7aa a03f 8d8b 9238 dbf0 883f
00000620: f570 bcb4 e4a9 b0bf ff59 1448 c53f bbbf
00000630: df10 63e9 19d8 7cbf b2d7 b4cf 449f bc3f
00000640: 9cbc 062a b6b9 93bf e5f7 6c26 5c10 b7bf
00000650: bad7 95a6 06be 9b3f 1916 2e16 96ac 76bf
00000660: 9544 5b61 1cc6 a5bf ef3c 0aa0 5ce5 a73f
00000670: 6b7f 2507 fbbf 9b3f 9a35 1c1c 6a50 933f
00000680: aac7 67e3 3604 b1bf 0fb9 e49b ea1a 97bf
00000690: 294f 6176 c728 b2bf d7d2 91bc 0fdf b6bf
000006a0: b48d 9813 aca6 c5bf 9599 7a7e 2760 80bf
000006b0: fc72 ece7 ef8b 8e3f 8f5f 5823 1db7 bcbf
000006c0: d513 19c3 dc04 a9bf 4d5d 009f a7c1 babf
000006d0: 234c 80eb 9ee7 b7bf da27 f9ff 0099 a13f
000006e0: 184f 8b8b 799a 94bf 5982 b126 7681 ac3f
000006f0: eeaa aa5f e9f4 a53f 68e9 982c ee34 bb3f
00000700: d864 bc0a 26ea b13f 9951 a214 d0c3 b4bf
00000710: 6eed 6468 1441 92bf a65c 2767 3106 9fbf
00000720: 5e1d 646c 1fe4 b5bf 2e83 d1c5 4dd2 b93f
00000730: 05f2 cd97 8088 b4bf 1895 1a2d e645 bdbf
00000740: 7ce1 e0ee 7ad7 a93f 26b1 5b0c d684 c2bf
00000750: 8ae4 69b9 d5a4 b3bf 77cc 9b88 c73e bbbf
00000760: a593 de9c 1aca c5bf e16d 093f c750 bcbf
00000770: b870 e91a f3a4 8fbf 04b2 9873 7190 92bf
00000780: 9949 6511 a81b 943f 0e5b b243 db5c c2bf
00000790: af37 b6ca a003 abbf cdae 27d0 514f c3bf
000007a0: c033 879b 9b76 c1bf f086 a7ff d017 c8bf
000007b0: f698 a65b 0547 c5bf b8ec 0316 6c99 cbbf
000007c0: 5f43 4b2e 69b6 babf 90a8 8662 2944 b5bf
000007d0: 3696 1a6f b05b c2bf d687 b924 bc79 abbf
000007e0: 0dc5 9450 71a6 a8bf 2c35 35fd e9b9 97bf
000007f0: 5601 67c8 0050 a9bf 6fd3 e787 0a08 663f
0.00010658460534862013 0.03678756987658553 -0.015688675064530852 0.09647490694377502 -0.01080300654493064 -0.001507738930115084 -0.10453948309416344 0.04322658738343228
-0.055529144168710735 0.014271573364612343 -0.028007006948080986 0.006649392805829831 0.10388848316586094 0.008927497994166951 0.07641684081186094 -0.05410651994113019
-0.054055532911692426 0.03173065392057505 0.08459765429172215 -0.06056292648966908 -0.08870015562254786 -0.029318211087505458 0.026222938699131948 0.004144281295341905
0.0258058989354857 -0.10939991668792985 -0.09905978890536812 0.04837990516340033 0.02512988021085505 -0.07636437533925554 -0.059156323789561975 0.006179597578790206
-0.04826523451621 0.009245423847613813 -0.06993354832025872 -0.031160259963500865 0.09529373937684658 0.09167802631166605 -0.011248668108389245 0.09416853114265594
0.09948092448340412 0.010266848886185852 -0.08973985051743173 -0.010837675053615353 -0.023538726551315996 0.0780177651891038 -0.028861174588791463 0.00855924379875227
-0.10641397997461774 -0.05923423261853906 0.0945875116960127 0.06633615494870589 0.058928818178681334 0.04879539488840256 -0.06649694067827315 -0.09731285660098525
-0.09989100107291783 -0.0523419982751486 -0.08692051814749799 0.0041483409403408784 -0.11466164973472065 0.0408861830609045 -0.029755700921214545 0.041726289212372474
0.06928577494676778 -0.0936104796829486 0.07265915302350087 -0.02712743291560618 -0.09299791701397399 -0.07355153720195794 0.11404859843167205 -0.0641978506018874
0.1068352333438433 0.11506229302511638 0.08901134845931721 0.03739512449378193 -0.10093964170825086 -0.051609944011035074 0.11334949898649604 -0.07723234675678421
0.06584863532558945 -0.011062941429544244 -0.04373781890727743 -0.07182710817343255 -0.013895785356982854 -0.07662502798973315 -0.0015841192855133657 0.07368477975837631
0.04862581261396957 0.09469946546371723 0.07285486777892494 -0.08748236547112012 -0.02247938409558687 -0.05817335183896044 0.11649864004253997 0.030550168935110384
0.14786173476507755 0.08001462022206764 0.08894324179522844 0.12718456728679275 0.11204187805719272 0.08620716822385613 -0.00426317130260115 0.08171805782924214
0.11393908406572327 0.140166893019253 0.11547936166140685 -0.00015519245987847993 -0.05038850965268933 0.055889444254693485 -0.0776348975413148 0.11283806691039605
0.10761904349725837 -0.0844350166691287 -0.10215868623943164 0.020001233343989594 -0.11347348334665606 0.020565472775724816 0.03376839669351553 -0.032292854654672305
0.015585583930630947 0.10702697182373787 0.12686428621132476 -0.043216827453458874 0.159394232849937 0.07729720333337925 0.14640263669203848 0.1706089971048256
0.22519559594678712 -0.016657027751509283 0.009196708747835907 0.0535052356636921 0.01973411051521498 -0.018130769764859514 0.04410738628230951 -0.012039550030557969
-0.07894236186031699 -0.07336544045146898 0.10424526792924248 -0.11562412580147496 0.025309607241526665 0.09207458816537814 0.04630547121672373 0.0027650207540153423
-0.10427395732597425 -0.015137625201044272 0.11963659721080398 0.10552808980791338 0.03550931750204351 0.164237094546233 0.13019523792779975 -0.002797749524869993
0.15517115426363784 0.08247916331052747 0.08291645940576987 0.10395417944851856 0.0588666336010575 0.13357172404280862 -0.04286605790155804 0.045705882570314785
0.007738187378993725 0.08788026082435478 0.015427799991782575 0.07463741719777837 -0.07597581832876207 0.009934587104966667 0.02191524730126494 -0.0034209438711831396
0.03864617564743274 -0.10193715639325962 -0.054753103812781694 0.11449051987736829 0.02276245808035265 -0.07107854246431931 -0.04030901055429804 0.07368283539545055
-0.02424521799520605 -0.04878631796535665 -0.08198048281594715 -0.017382114496088227 -0.08148909012965784 0.10161655806477006 -0.0043216047258348485 -0.017242927039894083
0.053224349886095895 -0.16368475186874298 0.057159175023061504 0.024936791364958553 -0.03807686655573136 -0.03266684443218073 -0.0067670448125993704 -0.016251244261849755
-0.15386518017316048 -0.09450809236196311 0.032553417367238324 0.012178146995500483 -0.06509236729147345 -0.10644181260827422 -0.007042027680828704 0.11180524893720081
-0.019263120951731424 -0.09009338319898992 0.027092079083977906 -0.005535684848728483 -0.04252709091600441 0.046671766792423124 0.027099535285173653 0.018861444440565124
-0.06647055675401128 -0.022563615574818615 -0.07093474044932847 -0.08934114793539592 -0.16914893109161044 -0.007995899722413916 0.014915346398589595 -0.11216909516258354
-0.04886522180144196 -0.1045174372851438 -0.09337800263919908 0.0343704521624912 -0.020120524541950763 0.05567521307307705 0.04288415234380759 0.10627640332032728
0.06997907411677617 -0.08111286643754169 -0.017826384422034484 -0.030297061844831184 -0.08551212688700136 0.10086523131895994 -0.08020786005176468 -0.11434782601516635
0.05047210851666059 -0.14467883685518607 -0.07673393036556511 -0.10642668805285092 -0.17023022327080387 -0.11060757912621667 -0.015451335200104985 -0.018129131966064818
0.019636751233812786 -0.14345875554564497 -0.05276205515393372 -0.150858141554059 -0.13643212408206118 -0.18822681887745984 -0.166229886771539 -0.21561957430808376
-0.10434586887573748 -0.08307131438656001 -0.14342313218109987 -0.053663138850211275 -0.048144856535495696 -0.023170143203335034 -0.049438499892405716 0.002689381187560284
