input/Theta2.npy (npy, 4160 bytes, 1 tensors)

array f8 [10, 51]
00000000: c9bc b13f 37c4 35bf 539a 991f 6fb8 e9bf
00000010: b5bd 7cb8 e73d c03f b3c7 e2d9 0bea cdbf
00000020: 93d1 d6e0 2158 edbf 0326 dddf 5915 e33f
00000030: 6464 fdd4 a583 d2bf f0f8 e929 2577 d53f
00000040: 23b8 2f41 c2d0 e83f a080 a786 533c d6bf
00000050: bfd9 5446 53f0 a3bf 9be2 9c06 288d c53f
00000060: bbcc f47c 09cc bf3f a630 1e72 17e3 da3f
00000070: 811a 8c7d 4e26 eabf ae53 6165 23d0 f2bf
00000080: bfaa 2132 0af8 ebbf 8d1e 9e6a 82b9 e5bf
00000090: 9e59 e982 9529 e7bf f5f9 ee71 8d9c debf
000000a0: 37f9 8057 3005 f2bf 5630 4f0c a1f1 d83f
000000b0: 44ab bd77 44c9 f3bf 8db3 2ab4 8547 b83f
000000c0: 5d26 b3d1 aeb5 e13f 635f 68a4 ce08 b2bf
000000d0: 98ab 678e c748 c43f 1340 b9f5 4a77 d23f
000000e0: 3d65 2aa4 3701 edbf b1cd 577d b616 c23f
000000f0: 7060 d89a 537f ebbf e0e3 50fe b01b d93f
00000100: f9d2 76f5 daed cb3f 033a 92d5 859f e4bf
00000110: 1ee5 fe3a e9ca f2bf 8a01 9602 5daf d9bf
00000120: f14c fc8a 0ca1 b13f 1628 652c aa4a b83f
00000130: 89eb 53ad 71da dc3f 203d aa21 a5db cd3f
00000140: 139c 2ed5 3026 c23f 134f baac 17e1 bbbf
00000150: ee6f 5970 88c8 e0bf 341d 322f a6c4 f2bf
00000160: c8f2 6f08 70c9 ef3f 5ac2 86b4 d372 f0bf
00000170: 1949 e804 8343 cdbf 1af5 0fcc ebe7 e0bf
00000180: 7c4e 7b67 f535 b3bf f477 98fb 7e21 e5bf
00000190: 3863 488f 5f40 b03f 5070 eba7 cd51 2dbf
000001a0: 1f68 0430 117a f23f 13ec d699 a8c6 f1bf
000001b0: b742 7284 d000 e5bf 93af a73f db68 d53f
000001c0: d35b faf8 e0a2 c33f c85c 8ddc 6208 8dbf
000001d0: 8c63 b591 869d e5bf 8824 77d4 411d e4bf
000001e0: 4be9 fa75 969d f13f 5b33 2cb9 f197 dfbf
000001f0: 463a 4d2c df91 dd3f 7b0f 1a64 7368 f4bf
00000200: 0707 e70e 3dc3 b4bf 4fc2 3b57 aabb e0bf
00000210: a410 32ec f3f8 e23f 5f52 07f2 bca0 e03f
00000220: e80b b6c3 babf 9dbf ca2c c7be a205 debf
00000230: 4e26 3825 db76 d63f 36c4 7132 e978 cf3f
00000240: 5805 3cea 8d67 f1bf 0716 eba9 b411 d9bf
00000250: b403 78ed 5d01 bc3f b5b8 7f92 2cac e4bf
00000260: 89c4 cbda 4cd5 e93f 0518 3fc2 8b44 cf3f
00000270: 1034 1dc0 fca8 cc3f 36bd 5a32 57d0 b83f
00000280: 3deb 6a0c d2b7 a73f 14d4 3d86 f59d d5bf
00000290: 4d2a b975 6da0 d4bf 297f c396 170c bf3f
000002a0: 35f0 f10f 2fac 913f 0157 0400 b43d e13f
000002b0: bebb 890d a455 d4bf 825d d9b9 8746 e3bf
000002c0: c41f 89a6 8bd6 d6bf 1793 283e fc47 e3bf
000002d0: 0e09 8450 6133 f5bf 6f9d 292d 11d6 dbbf
000002e0: 87f6 d295 c309 e3bf 6cec 06ad 617e f03f
000002f0: 748d 869e 473b dd3f 343a a554 d057 efbf
00000300: d725 b9d0 3df7 ecbf fda5 f53e 63f3 df3f
00000310: 4b09 d791 50f9 e3bf 4394 147e 5a91 973f
00000320: bef6 1cc7 da4b a6bf 694f 00ee ff52 e4bf
00000330: d62e b069 ad7f 27bf 49b7 3718 e5b3 e63f
00000340: 3d01 3a4f f50c db3f b231 49ea 90ef b03f
00000350: 642d 908a 9109 f2bf 97ad e266 702b b23f
00000360: 6c4a cb2b e372 e63f 24d2 ad13 cd55 873f
00000370: f32c b12b cd71 f0bf 13d2 45db 7f5d 773f
00000380: 04ac 3219 a550 d7bf 9e82 f8d4 8568 c53f
00000390: 9930 55c2 0792 cfbf b159 3a85 4f5a e7bf
000003a0: 6c74 cb7a 1777 d33f e2f1 28cb 952e e33f
000003b0: 6884 2e22 afde f1bf c2af 30cb 4fae d7bf
000003c0: ca4a 46f5 be05 e9bf 8347 c557 f767 e2bf
000003d0: b52c a0b2 9e33 c63f bd27 918e 1f59 e53f
000003e0: 4093 5d1a 0719 e1bf c630 b164 1768 e03f
000003f0: 8fb8 f070 4a9d e3bf 6904 58b9 ea79 d23f
00000400: 3142 3eb1 bbb2 e1bf ec1e a942 3b4e d9bf
00000410: e0bb 0202 014e f4bf 1178 5ace 9845 b43f
00000420: 5727 a966 aa5b e53f 765f 00fb 914f d5bf
00000430: c7ac c507 1e2c e9bf 9252 7b32 c40e cdbf
00000440: 7684 05b1 a4f4 ecbf 9a0b 1830 437e dfbf
00000450: dfd1 9473 8fbb d13f 3eca 97ae ee80 b0bf
00000460: a9f4 9b45 32b1 f5bf 1094 a844 c0c2 df3f
00000470: 6ef8 7bba 8200 d93f 1021 bf64 d02d bbbf
00000480: 36f8 9cd1 f107 e23f 75f0 2356 4e02 e3bf
00000490: dced a0e1 a3f0 eebf 3903 0073 453e e03f
000004a0: e37b 2d97 214b cdbf e0d8 db6f d12a edbf
000004b0: a4d6 5321 e6cc b93f e085 77c1 5c17 e1bf
000004c0: 603e 316b 1f1d d7bf eccb f023 ca17 33bf
000004d0: d290 84cb 9bb4 b4bf 4956 b3bf 3739 d4bf
000004e0: 96cd a693 0eba f7bf b8ca 4908 abfc d2bf
000004f0: 5b8a bc0f b1fc b33f 9791 d2bc c9c8 d03f
00000500: 755e c80e 4bae d3bf cf0e 3df2 74b1 f2bf
00000510: 40cf cd2c 4bff e4bf 8e0d b92d 232b db3f
00000520: 1870 4cc9 ab4e e53f e1d9 f503 0720 cfbf
00000530: fb18 2b30 15e7 d73f a00b 546c 8efc de3f
00000540: b40c 6efb 07dd eebf c8c7 1fd9 9293 b2bf
00000550: 4af6 5e35 9c03 d63f 6432 e46a 4158 eabf
00000560: f95a f9d6 15c8 c23f f14d a001 c3a2 92bf
00000570: 3157 bf3b c2d1 9e3f ad50 6c3c 06b9 ed3f
00000580: dbb8 c2bf 578c e9bf b1e3 ca64 ac35 e53f
00000590: 1be6 379e 69cd e7bf 6213 786e cd6f bebf
000005a0: 6ea3 b5fe 4914 e2bf 8eea a887 45c9 d83f
000005b0: c081 8c8d 8d55 dabf e4f6 78a3 b7e6 e3bf
000005c0: 12ba 324a fe5f 663f 66c0 9cfb 0877 f3bf
000005d0: 94a4 91ec fb7d f33f 166f 2c18 c935 e4bf
000005e0: 7d1d 9d45 e4da 963f 27ac 2763 af7f e7bf
000005f0: a081 451e 8dd2 dd3f 66a5 f9d5 9868 ebbf
00000600: d8f6 fae7 37a1 da3f ece3 8f5b eef8 be3f
00000610: 895f 6972 9011 c0bf 8a77 3398 d8c0 e5bf
00000620: f92e cbfa 8aae c0bf cd4a c4bf 999b f4bf
00000630: bbf9 089a 8297 923f 1fce 8197 c4d2 a2bf
00000640: f184 315f 70c9 e5bf 212f 8635 2242 bfbf
00000650: 12a7 8706 a629 e8bf 920b 85a1 eae2 cdbf
00000660: 5906 14b7 edd5 15bf 1dd4 1161 7409 e2bf
00000670: c829 d9bf c7f2 acbf 678d b6ce 92a4 c5bf
00000680: ec4a f034 9d75 da3f fbd3 6e42 dcc4 edbf
00000690: 7a5e 4efc 7291 de3f 9f4c 60c3 5beb ce3f
000006a0: 3e95 df6e 2663 dfbf eb55 6bc3 2220 e4bf
000006b0: 65ff 7d1d ce2c c4bf 1f32 812f c1b7 e9bf
000006c0: fcfd d97a 6bed debf 6095 04e9 12d1 eabf
000006d0: 28a8 68ee 1a53 c23f e17d e8e7 e293 e23f
000006e0: debe e2c6 eabb cd3f 7a71 6cd8 b75c c1bf
000006f0: 658a 3156 8c12 f03f 3d6e 01ef 66aa dcbf
00000700: cbd0 4d4d cf00 eb3f 698d c21a 3670 e7bf
00000710: 5cd0 f030 b6f3 b1bf ba0d 522b 33d6 b03f
00000720: 23fd 597b 5eab d93f 85fd c066 1c21 bcbf
00000730: 3bc2 14b7 316e b2bf 25b2 1276 39c1 dfbf
00000740: 3078 90bb f1f2 d3bf 14ea ec6b c449 f9bf
00000750: 09b3 0cb1 b8be ea3f 9f17 bde1 9099 ebbf
00000760: 9533 525b 6ce7 c13f 4e05 9cd1 431e dabf
00000770: 3726 9c56 b199 e03f be42 4e0f dc86 b1bf
00000780: e528 fcf0 4612 da3f 67df eb08 202a e2bf
00000790: fc90 ebba 6005 e63f 78e2 0669 e6ce f0bf
000007a0: a16d 4d41 b8cd c0bf 6ad3 a739 e7f3 c0bf
000007b0: d2fb b6fc 64e5 e5bf f8a5 761f 11b7 efbf
000007c0: ce6d b527 3f15 cc3f d456 48ab e49c c53f
000007d0: 96d9 748f 94ab e5bf 2e74 d165 4796 e53f
000007e0: 73fb 9a45 7fb3 f3bf c6d9 827f 40bc e5bf
000007f0: 4207 4462 88f1 e63f bae8 99bd 9140 15bf
-0.000332129944303494 -0.8037639252841678 0.12688919552009073 -0.23370502604444496 -0.9170083419217455 0.5963563320485153 -0.28928514289652285 0.335397044116589
0.7754832528278296 -0.34743202352366076 -0.03894291146791628 0.16837024996654723 0.12420710850419685 0.42011057037667354 -0.8171760990233708 -1.1758150062716868
-0.874028299248799 -0.6788951952339218 -0.7238261753907869 -0.4783052075034953 -1.1262668054692548 0.38974786951144347 -1.2366375615481084 0.09484134338954515
0.5534280868243503 -0.07044688714847562 0.15847105458609856 0.2885310554165709 -0.9063986021384732 0.14131814117682276 -0.8592927955933316 0.39231514773888243
0.21819626794390226 -0.6444729968368964 -1.1745388321417702 -0.4013283276799703 0.06886366265489464 0.09488929351678652 0.4508327667860433 0.23326553481863588
0.14179048928528512 -0.10890338866220999 -0.5244791216205138 -1.1730100482544232 0.9933395542899115 -1.0280339290440197 -0.22862279643647623 -0.5283106790153937
-0.07504209305198545 -0.6603388704277209 0.06348225830187182 -0.00022369037102165862 1.1548015475914395 -1.111000634132101 -0.6563494288294213 0.33452492920218296
0.15340816647650843 -0.014176151614874746 -0.6754792066450235 -0.6285714292254321 1.1009735687826658 -0.49364893992679065 0.4620283062585354 -1.2755006704546463
-0.08110410322026605 -0.5229083732393266 0.5928897488779694 0.5196213461991411 -0.029051702685602893 -0.4690939772669479 0.35100439676952966 0.24587740862946966
-1.0877818250449618 -0.39170567124924144 0.10939585731104168 -0.646017347460449 0.8072876237257712 0.2442793558568043 0.22390708332605458 0.09692902545315438
0.046324314132525114 -0.3377660571052854 -0.3222917222634905 0.12127826147797961 0.017258391712388927 0.5387821197825532 -0.3177271015364872 -0.6023596410622505
-0.356844818718397 -0.6025372709305853 -1.3250439782282828 -0.434940618614255 -0.5949418951274347 1.0308548697346636 0.45674314957633233 -0.979469456980786
-0.9051808430314691 0.4992302050437443 -0.6241839264332979 0.023015417046867503 -0.04354747467594454 -0.6351318024121443 -0.000179281157074099 0.709459826755599
0.42266590821238365 0.06615548820372544 -1.127336064588996 0.07097532760479051 0.7015243392327881 0.011394121325545355 -1.0277835566255902 0.005704402389131963
-0.36429717503295955 0.16725228213274063 -0.246643991364526 -0.7297742464168576 0.3041437815825876 0.5994366615264506 -1.1168662390921558 -0.3700141414908523
-0.7819514074820628 -0.5751911844511003 0.17345031473118913 0.6671293053161588 -0.5343051447822305 0.5127064673083843 -0.612950535379939 0.2886912164686409
-0.553068014314766 -0.39539987096621476 -1.2690439299146803 0.07918696439671204 0.6674396519749547 -0.33298158180104254 -0.7866354133415364 -0.2270131346218887
-0.9048636872722813 -0.49208144852325975 0.2770727757190609 -0.06446735155604075 -1.355760833655305 0.4962616606229071 0.3906561680922839 -0.1061678167308211
0.5634698003775671 -0.5940314943723154 -0.9668750197228593 0.5076014753431998 -0.22885532266351935 -0.9114768204442747 0.1007827597967102 -0.5341018465662124
-0.361152510337865 -0.0002913349634951479 -0.08088086813637865 -0.31599229546313673 -1.4829240577354077 -0.2966716366710602 0.07807451852981144 0.26225512923908795
-0.30751301234838674 -1.168324419254464 -0.6561637759282135 0.4245078989517531 0.6658533984768864 -0.24316489880921124 0.3734791727441828 0.4841648157018259
-0.9644813452472563 -0.07256429482347848 0.3439703484726563 -0.8232733810160195 0.1467311191251708 -0.018199011778120725 0.03009704103154504 0.9288359813822545
-0.7983816857647769 0.6628019302944407 -0.7438247766687626 -0.11889347025869548 -0.56497668979601 0.38728464363126924 -0.41147173712854723 -0.6219137375662425
0.0027313200567598084 -1.2165613010984315 1.2182578316663113 -0.6315656158580818 0.022319380520710908 -0.7343365608807105 0.4659760280246932 -0.856518190307878
0.4160899892266179 0.1209858869114126 -0.12553601824287977 -0.6797907803227059 -0.13032662626061844 -1.2879884234322845 0.01815609040408515 -0.03676428174449264
-0.6808397158858083 -0.1221028690981112 -0.7550840499436353 -0.23348744284347994 -8.329642675521924e-05 -0.5636541267291509 -0.056539766472798514 -0.1690848836270604
0.41342859430112244 -0.9302808091657647 0.4776275123526613 0.24155756988384255 -0.4904266436336292 -0.6289228264601524 -0.15761734428451316 -0.8036809852433783
-0.4832409572336187 -0.8380217124110168 0.14316116944365942 0.5805525330978832 0.23229727469651257 -0.135642033267583 1.0045283667501732 -0.44790051784886825
0.8438488492816075 -0.7324476740508717 -0.07012499518242649 0.06576843078260355 0.4010845379452396 -0.10988023289336553 -0.07199393005135672 -0.4961684849793378
-0.31170314137296184 -1.5805095878446354 0.8357814271927008 -0.8624958428342672 0.13987497767484727 -0.408097223946318 0.5187613193131203 -0.06846404431986294
0.4073655465478068 -0.5676422285314232 0.688156476095656 -1.0505127050984395 -0.13127806843372716 -0.13244333567822802 -0.6842522559962794 -0.9910970320244692
0.2193983978166742 0.1688505016651819 -0.6771948625453657 0.6745945919643697 -1.2313225478135024 -0.6792299738361229 0.7169839782002116 -8.107080011568709e-05
