input/Theta1_overfit.npy (npy, 314080 bytes, 1 tensors)

array f8 [50, 785]
00000000: c64c 7d3a 8c32 213e 50a8 0d6d d7fe b93f
00000010: fb3a 1e7b a72c 833f ee2f ca2d 5735 9e3f
00000020: 84f6 6e96 1ddb 72bf 4643 66dc f433 6bbf
00000030: 1c4e 8c6e e241 a8bf 9c55 ab90 e47c b53f
00000040: 6743 44ce 3ab4 b4bf 4917 33b2 0692 7dbf
00000050: b697 4d17 70af a1bf ea45 7fec 09d3 babf
00000060: 9116 3519 3a29 bb3f 2e35 0962 3f1d a63f
00000070: 392e bb21 a437 a1bf 569a 4910 dc41 b03f
00000080: 460c e7af 084b b23f c1d3 e037 ada1 ae3f
00000090: b94b 70e5 dac1 b73f c37b ae8a 20f6 ac3f
000000a0: b8bd 00cd 84c4 babf 05b4 0a54 fb63 b6bf
000000b0: fc80 233f 84de aa3f c155 13a9 aa91 973f
000000c0: 3eef 394c a0a5 913f 6aca ed22 03c4 a2bf
000000d0: 36d4 1b38 d826 a0bf c394 d2c3 c4f0 b63f
000000e0: 6569 f0d9 c9e2 b03f edf8 d06a 075a 90bf
000000f0: b65e 7a7a 8d3b a3bf 19af 6501 98d2 ba3f
00000100: 6ee7 848a 863d bbbf f58c 30af 9b29 b5bf
00000110: 6104 b5bf fee6 b83f 54fc e469 6805 b7bf
00000120: c321 293a 8f3e b9bf 9ddb 4788 3b68 83bf
00000130: 5618 fbe3 303e b03f 0e7f 0b66 47a3 89bf
00000140: f6f9 d712 e806 a33f 058c 5830 a48c 763f
00000150: 97c7 3dea a6f7 b43f cdb6 f71a 93ae b43f
00000160: 0278 e5a7 dbf6 95bf 7f11 48f2 6154 b2bf
00000170: 2766 b781 ee8b 9c3f 2c17 117e ebf8 a33f
00000180: 1830 add3 1544 b1bf bcb9 31de 1d46 9cbf
00000190: f912 6a89 32ef ac3f 6f55 0cd3 428e a53f
000001a0: 0089 0f27 8ee8 ba3f 256b f8f4 dbae b2bf
000001b0: b004 9292 4219 a4bf 884a c0f9 ded4 ba3f
000001c0: 17fd 11f2 f244 8cbf 8284 8e52 91ca a93f
000001d0: 0416 1788 9b5b b0bf ba21 fe5c d188 a73f
000001e0: 4db9 c779 a68e a23f bd31 d96e 92f5 8bbf
000001f0: 344e f9f5 a587 6abf 3b87 4965 1791 b1bf
00000200: da12 c4e5 122b ab3f 27d0 eefb 7ebd a73f
00000210: d6d1 4672 891d b33f 3d21 d3da 36d6 b8bf
00000220: 8df9 89a1 ea01 a53f 7f51 0994 eb08 a6bf
00000230: 07a8 522e ff08 b23f 8382 e0f8 6344 83bf
00000240: 81a4 2902 feae 84bf 33bf 5f10 cc05 b03f
00000250: 0aae 06ed f429 8b3f 4743 14c3 4a41 99bf
00000260: 06c7 7493 3de6 963f 4d9c 3235 0d89 b63f
00000270: f67a 0336 a10c b2bf 0d3c 6ba4 82a6 83bf
00000280: 88cd 0f5b 393f b7bf f958 2ea9 8645 a73f
00000290: 5879 cc91 e288 373f 6cde 234c b1ee 7bbf
000002a0: a44c f380 5a9e a3bf 74df 801b f78a ac3f
000002b0: 6499 71c5 1517 823f fb18 ff0b c1ed a63f
000002c0: b3c6 7a40 93bf 81bf e6de 2cdd 8b59 ba3f
000002d0: 2d5a dedd 4e47 9ebf 123b fd87 f30a bbbf
000002e0: 4fe6 7869 7ad5 afbf 9d00 36f7 600d 9abf
000002f0: f9e9 9ce4 8bbf b7bf 8aea 6b8d fb6e 643f
00000300: b085 5f7d 997e 89bf 2255 cf9b dd56 b63f
00000310: 71db b6a0 aaba b3bf bb1b c030 13d2 9fbf
00000320: 45cc d0a2 ecc0 913f 9871 0063 e56d b5bf
00000330: 2b00 dec2 507b b6bf cb22 2b5e 212d babf
00000340: 7885 a307 9461 683f b35e 8d98 6e1a a43f
00000350: 1f4c e212 54b1 b4bf 2d9d e061 1f62 b2bf
00000360: 67d5 35f4 0ec8 883f fec1 6257 a280 953f
00000370: 4013 03a5 0044 a4bf 4fc6 8021 d726 b73f
00000380: d956 7b86 33ff ba3f 94f4 435b e41b b0bf
00000390: 0060 f45a 5fd5 b9bf ffe0 63de 9743 a43f
000003a0: 9533 b8ac 9eb9 a6bf 2da5 8b12 5596 ab3f
000003b0: f95a ec45 4097 91bf 7447 47b9 823e a0bf
000003c0: 3fa2 a9d3 3f10 a53f 9088 8e0a dd54 9b3f
000003d0: 3de4 3106 7f19 b3bf 14e7 c114 6539 b53f
000003e0: 0996 5c33 de51 b03f 401d bfb8 8277 873f
000003f0: 865d 92b4 4e2b b63f 9601 4148 e6cc a1bf
00000400: 6cbb 9bc2 6f33 adbf bc56 b441 de33 b03f
00000410: a7ec 215b 606b a43f f608 68ea 70d2 81bf
00000420: d1c4 369e 1ac4 b2bf d947 71ef 1556 a2bf
00000430: 6109 c0b7 62d6 b33f cdca efca 7d78 963f
00000440: 3ca2 1e78 6c5d b73f c177 23ab b685 96bf
00000450: f62b 7d94 6e25 a5bf 5537 5477 4e3a b53f
00000460: ae0d e181 6184 813f cc95 68ab cfac a7bf
00000470: 9c6a 1768 4b87 b53f ac09 0fb9 313b 9a3f
00000480: b27c a825 b238 99bf b2dd 2528 d471 b2bf
00000490: 64cd ef25 6494 b8bf ea2f 2219 83a8 81bf
000004a0: eaeb 6f83 45be b23f 5216 e405 8fbd 88bf
000004b0: 8ef3 5a04 8fd2 b0bf 8be7 2710 dfad ab3f
000004c0: 4c83 a8d8 2155 8fbf e031 d346 bf60 913f
000004d0: 3728 486e d389 913f 332d db94 7e50 943f
000004e0: b1e5 1247 f345 a83f f11e 1f6a 8c1a ad3f
000004f0: b569 c82b 15c9 8f3f 128b 1f95 2e68 b2bf
00000500: 14e0 c9d5 5755 b1bf 318a 2405 f533 b33f
00000510: 77fa 2c99 c373 b93f 8ef1 a757 6348 b3bf
00000520: f104 33eb 79cb b73f 1e79 833a fba8 b33f
00000530: c710 9a3d fb4e 79bf b40d dd3c 0fcd 803f
00000540: 0a42 301f afe5 b13f a532 775f b153 a03f
00000550: a6f4 a897 b204 6b3f 31f2 8fa4 e93a 9ebf
00000560: 0eb3 eac0 83a8 b3bf e7a1 2f7e db1c babf
00000570: 8955 ded4 057c 7d3f 2c43 aa29 f217 b83f
00000580: 3440 e6af 29da a2bf 461a 179a eecb 9dbf
00000590: cd88 390b b95e b2bf a9ca bcdf 1dea b6bf
000005a0: 3fa2 3d99 a68e b1bf 96ad dc4f f8b3 b63f
000005b0: 7d71 4f5d 41ed bd3f 4b29 f3c7 886e 9cbf
000005c0: a628 0f0c 1853 b5bf 631d d5b4 6e38 a73f
000005d0: fe47 b69c af78 5b3f d963 a346 76cf b93f
000005e0: 461a edde 254b a1bf 115e a7aa caa3 9f3f
000005f0: 8078 e197 86e5 a73f f939 e42a 6714 8c3f
00000600: c2ef 96c7 5e90 ba3f e63e 0deb 430b adbf
00000610: 9d0a 6777 eaef a23f c44a 54db dd0a 943f
00000620: 1f0f 1218 1100 8b3f 9eef e919 d719 b23f
00000630: 8337 6433 4889 b73f 9eed 2eee 491e aa3f
00000640: 79ea 79d4 7945 b6bf 7ceb ef8e 79d4 aa3f
00000650: 62d5 1263 6c69 a23f 0c94 5070 b60a babf
00000660: c9c3 2c9f 79d5 ba3f 679d 4082 c619 94bf
00000670: 92e8 31e2 33c6 aabf 1c2b bca1 12f5 a73f
00000680: 0b37 b132 b7fe b0bf 7a10 d3f9 3dcb b83f
00000690: cdf2 ff30 c63c 86bf f8ab de56 de70 b5bf
000006a0: 1cc3 e3a1 99ef b33f 1f6f e4fb 5230 ba3f
000006b0: d021 faa6 6071 ac3f e9f7 6052 73ed adbf
000006c0: 2e10 cc9d 3f73 abbf c67d 0c24 0940 bc3f
000006d0: e1a2 e64d 9b47 8fbf dcbd 668b 9c75 b13f
000006e0: d3bb c009 55e5 b1bf 1c35 efdd 4737 91bf
000006f0: 8186 042a 0953 a2bf bffc 2c60 63c5 ba3f
00000700: bdf4 b41c 71e2 9f3f 32db ab71 6f64 92bf
00000710: 4c79 2763 6953 b13f 25ac 118d fd63 743f
00000720: 31b1 72d1 fe65 943f 3b9b 7736 5503 a83f
00000730: d4cb 7d30 e6d4 913f ce61 6032 a62a 6cbf
00000740: 7cf6 0289 57c1 753f 1718 3315 f4da b3bf
00000750: 8f8b feb0 51e1 ab3f a3d3 90d6 a5a6 70bf
00000760: d28a 3d22 5722 c03f 8e06 f237 8c76 c03f
00000770: e056 96d1 f0b5 b5bf d298 b58f e308 b73f
00000780: 79df b067 c0b4 b23f 280d 64fc bffd be3f
00000790: 92d0 40dd b9b8 7abf fbca 739f 67a6 a5bf
000007a0: 2f6e f7bb e7d9 a9bf a16c 3c86 e5b5 b3bf
000007b0: b282 7173 eea8 9bbf 08cd b56c 4ac8 a23f
000007c0: 420a 6241 09a2 923f 1138 a2f2 5e32 ac3f
000007d0: 1820 f0bc ef4a 82bf ea70 d52c a6e9 a43f
000007e0: 2092 d58d 7108 b5bf 590b bb0a 6e15 aabf
000007f0: f477 021e 63f7 a0bf 72a2 0bfb 627d bb3f
2.002046934411838e-09 0.10154482281146326 0.00936251492001138 0.029500353021418783 -0.004603496147806422 -0.00332067322160193 -0.04737765883887965 0.08393696338619921
-0.08087508712584467 -0.007219339520082199 -0.03454160961591361 -0.10478269599777659 0.10609782329000896 0.043191891400605406 -0.033627633206915815 0.06350493810314481
0.07145742697234522 0.05982724482638658 0.09280174352197336 0.0565653008736642 -0.10456113820031632 -0.0874631004505347 0.05247891684280323 0.023016611642409538
0.01723337617157416 -0.03665170480134779 -0.031546360825736405 0.08961133747887388 0.06596051760462769 -0.01596843327956148 -0.037563725663117095 0.10477590593444254
-0.10640755540671673 -0.08266613986102185 0.09727470569943499 -0.08992626748384797 -0.09861083192766444 -0.009476151558357954 0.06344895902574996 -0.012518461038268505
0.03716206769967194 0.005505219805431065 0.08190386980802909 0.08078879745854835 -0.021449501154499735 -0.07160007634235475 0.02787754694677438 0.039008483065613525
-0.06744514863856954 -0.02761122387567537 0.056512431406224146 0.04210099054595672 0.10511101201658235 -0.0729806397506932 -0.039255218879597265 0.10481065366210818
-0.013803384792707747 0.05037359364292461 -0.06389782021059182 0.045965712167404374 0.03624458538603168 -0.013651985175919696 -0.0032385102675023484 -0.06862016890366089
0.053063002154919395 0.0463676149878725 0.07466944732625022 -0.09701865045929466 0.04103024694358046 -0.04303680593571623 0.07044978028230285 -0.00940778830778411
-0.01009939617252287 0.06258845710521825 0.01326361988397819 -0.024663131863295076 0.022362672925004844 0.08802874134799872 -0.07050521439257892 -0.00959493698374383
-0.09080847237765088 0.045452316429122015 0.00035911113245558823 -0.00681943184667198 -0.038317516556753334 0.055747720820760543 0.008833093727116555 0.044782669748700564
-0.008666181950818119 0.10292886876856819 -0.029568893710882605 -0.10563585348175433 -0.06217558419707513 -0.025441660965498703 -0.09276651698466044 0.0024943268903119863
-0.01244850076540413 0.08726296476318798 -0.07706705497444745 -0.031074809885492032 0.01733751052615797 -0.08370813052210335 -0.08781914479732282 -0.10225113438640247
0.0029762164314070493 0.03926416027269166 -0.08083081685099146 -0.07180973186097069 0.01210033114214566 0.020998512824634823 -0.03958131803805154 0.0904364067835328
0.10545656235930369 -0.06292559841308992 -0.10091205568858186 0.0395781954738954 -0.044384916862419 0.05388131953606954 -0.01717853953149537 -0.03172691833209643
0.04113959749958384 0.026690915841421303 -0.07460779095880894 0.08290702587865112 0.06374920610377201 0.011458417189614267 0.08659831913461433 -0.034766384429988736
-0.057033054834269986 0.06329144577133666 0.0398817168470143 -0.008702165750041218 -0.0733048092140678 -0.035813031653233636 0.07749001489722708 0.021944013129494167
0.0912692826519867 -0.021994451709239863 -0.041301208139508036 0.08292093671135821 0.008553277755828894 -0.0462403198946891 0.08409568110747973 0.025616433067406838
-0.024630340145560488 -0.07204938869641955 -0.09601427007856028 -0.008622192577853089 0.07321581324497087 -0.012080304496076586 -0.06571287018137026 0.054060908052590305
-0.015299095558533836 0.016970623681844432 0.01712732658965185 0.01983831199212922 0.047408678461077776 0.05684317393712302 0.015520253561636868 -0.07190219059661399
-0.06770848245093958 0.07501155257754345 0.09942266931191478 -0.07532330408134255 0.09294855110330837 0.07679720095209006 -0.006178838165969042 0.00820361999979622
0.06991095076978851 0.03188852587081684 0.003298138440440984 -0.02952160899075035 -0.07679007968790705 -0.10200282889093835 0.007198355464330127 0.09411538617338228
-0.036820700380417654 -0.02909825149051872 -0.07175785564462274 -0.08950983726826202 -0.06858292809705178 0.08868362378841818 0.11690147903522603 -0.027765404895754114
-0.08329916281141667 0.04535242040088396 0.001676722999807811 0.10082186913076842 -0.03377645822779533 0.03089825312221534 0.046673017540102 0.013710790630764956
0.10376541493218297 -0.0567265724590678 0.0369866629366886 0.019572702895923624 0.013183721110415157 0.07070679075871886 0.09193850760149584 0.05101233513365887
-0.08699761807830865 0.05240230436171253 0.03596056661028048 -0.10172596208629175 0.104819871293116 -0.019629575443244642 -0.05229341636818775 0.04679163193039512
-0.0663866518745772 0.09685122822981099 -0.010858105059008772 -0.08375348683209427 0.07787475778947023 0.10229986810412271 0.05555250204367079 -0.05845222836113335
-0.0536136512874069 0.11035210733506692 -0.015273297610137461 0.0682008591017999 -0.06990558136088447 -0.01681244175033668 -0.03578976285849667 0.10457440469780276
0.031137244584205293 -0.017961255371996283 0.06767901106602386 0.004978170808594339 0.01992033151025047 0.04690042772181476 0.017413708409957554 -0.003438305476276527
0.005311338362103176 -0.07755971448486353 0.05445342336249503 -0.004065177731764988 0.12604798480886942 0.12861778957089992 -0.08480744473339596 0.08997938402680752
0.07307055026546817 0.12105941688428301 -0.006523824722581522 -0.042285192694086114 -0.05049060983193631 -0.07699427153822792 -0.027011609836679447 0.036684346933634926
0.018196243873271685 0.05507179939114349 -0.00893199248641001 0.04084510133063353 -0.08216008866072189 -0.05094474678983003 -0.03313741437271736 0.10738199833907361
