input/Theta2_overfit.npy (npy, 4160 bytes, 1 tensors)

array f8 [10, 51]
000000 67 14 72 ee 9b 1b 24 bf ee 26 f5 38 06 09 e2 bf
       -0.0001534107061368667 -0.5636015999272936
000010 9d 37 5f 5e 4c f5 e1 bf ae 77 3b f3 bb 0a f5 3f
       -0.5611936419679641 1.3151206494580765
000020 67 99 b4 4d 6a e5 f4 bf 87 b5 76 85 1d 95 d6 bf
       -1.3060095820779567 -0.3528512767178075
000030 5e be eb 9a 9c c5 7b 3f e6 13 11 03 cb f0 91 bf
       0.00678025411501401 -0.01752011495797836
000040 31 a7 af a3 cb ad f2 bf 36 9f 57 e2 1e 94 e1 bf
       -1.167430533789638 -0.5493311329600832
000050 e7 12 75 44 0d ad dc bf 79 2c 3f bf f9 c7 dd 3f
       -0.44806224522862553 0.4653305404323827
000060 15 81 2d 3e 15 df f4 bf f3 c6 8c 77 8b 98 db bf
       -1.3044636181658167 -0.43118559527202577
000070 7b 61 8e 7d 95 91 f0 bf 62 ad 95 3b ef 0a c2 bf
       -1.035542955831345 -0.14095869454772997
000080 a6 ce 5e 5c 70 af f8 bf 70 07 07 cb 71 49 f2 bf
       -1.5428317650047716 -1.1429307871589707
000090 7b ad e1 f0 f7 ec f2 bf d6 15 47 8d 68 4a ec bf
       -1.1828536424098661 -0.8840830573396328
0000a0 c7 57 bd f2 3d 27 e0 3f 65 88 c4 d6 48 f9 a0 bf
       0.5047902813919273 -0.0331518900077448
0000b0 8e ac e2 9d 5d 5b b3 bf b7 45 86 3a 4c c0 e0 bf
       -0.0756128797972215 -0.5234738486344018
0000c0 ca 99 7a fd 77 9a b0 bf c6 d8 1a 21 d6 cf f4 3f
       -0.06485700548601084 1.3007413190039627
0000d0 96 69 f5 8a 3a 7d ee bf 60 0e c5 5a e4 29 f0 bf
       -0.9527867044483169 -1.010227541512812
0000e0 f8 95 49 b9 fb 00 dd 3f 32 11 55 fd 79 3f f4 bf
       0.45318501562573443 -1.265497197703621
0000f0 f5 48 3b d0 7f ab ed 3f 95 6b 84 fe 45 eb a4 bf
       0.9271849696181379 -0.040857493704798
000100 f1 ae ab da 70 5c 9b bf 49 8f a2 10 93 0a ed 3f
       -0.026719821306797568 0.9075408291723558
000110 10 3c bf e5 17 b9 c2 bf b4 5f 51 db 2d f6 db bf
       -0.1462736007510732 -0.4369005815292397
000120 e3 d3 47 95 fd ec 71 3f 99 a0 60 41 95 80 e2 bf
       0.004376402434435686 -0.5781961705115634
000130 b5 28 85 da 5f 37 ff 3f 87 2e 99 86 f8 25 e1 3f
       1.9510191474860623 0.5358851078867283
000140 18 4b b5 6b 06 e2 b9 bf 5f 1b d9 37 5b 0f b2 3f
       -0.10110511903375785 0.07054681886175505
000150 ec 82 19 0d 7c d5 d5 3f d7 3e f7 f2 78 76 bd 3f
       0.34115506438506205 0.11508899623663225
000160 c5 70 2f 35 85 51 de bf 20 99 98 4e be d0 97 3f
       -0.4737256068599545 0.023257230326771183
000170 59 f2 0e fd 52 57 b9 bf 7b c8 95 01 42 8e e2 bf
       -0.09898871114905584 -0.5798654585799022
000180 8f 66 94 e7 dd a6 c1 3f 27 2b a2 13 14 d8 f0 bf
       0.13790487105943725 -1.052753521626707
000190 23 12 0d 51 b7 fe e5 bf ee f2 6f bf bc 86 20 bf
       -0.6873432715443112 -0.00012608579683605993
0001a0 85 98 cf aa e6 e9 da bf 65 f6 8d 2a ad 1c d6 bf
       -0.4205261867595101 -0.3455002704211892
0001b0 98 78 51 8c 49 92 af 3f 51 a8 59 b2 e6 4a c4 bf
       0.06166295850629061 -0.15853580196864184
0001c0 25 f3 3b 77 6a ad ed bf 7e be f4 fb 62 c1 b5 bf
       -0.9274189308922344 -0.08498209620733552
0001d0 02 e1 1a bc 37 b6 ac bf c4 5a 4f e8 57 9d eb 3f
       -0.05607771083072245 0.8629569566063187
0001e0 88 98 73 46 8c b4 db bf c7 20 bd 5f 79 59 f6 3f
       -0.4328947723391896 1.3968442668720387
0001f0 c8 54 98 79 13 64 e5 bf db cc b8 ec 2d ef e4 3f
       -0.6684663176444241 0.6541967032884729
000200 4d 5b b0 4c ea 77 dd bf e6 bb bc d2 59 61 e7 bf
       -0.46044404496335717 -0.7306336513482818
000210 6d 99 f1 42 d8 55 c8 3f f1 1b 74 0a 86 cc c6 3f
       0.19011977452027953 0.17811656485011398
000220 f3 0a 15 5c a9 91 b9 bf 21 00 32 f1 64 29 ec 3f
       -0.09987886903858705 0.8800530157896028
000230 65 50 d5 26 8b 5f c2 3f 6a 42 9b 6a e9 24 fb bf
       0.14354075809626746 -1.6965116657558164
000240 24 82 f1 b2 ed 36 ba bf ce 49 37 97 fe a0 8a bf
       -0.10240064257369191 -0.01300238512968557
000250 85 7f 80 e1 12 6d db bf 7a 83 57 b7 37 de fb bf
       -0.42853233358072657 -1.7417523538390172
000260 a4 b4 34 a5 a8 86 e6 bf cc 3e d0 2a 01 14 ed 3f
       -0.7039378382375117 0.9086919628334384
000270 87 56 13 f0 67 e3 ec bf 1d e8 c5 62 76 cc ec bf
       -0.9027595223403332 -0.8999587945138533
000280 7d bd 29 b5 36 71 e8 3f 3c 0d 6f 97 10 fa f0 bf
       0.7638200319615148 -1.0610509791739124
000290 60 6b d2 67 0d e1 66 bf 75 7c 60 5b 5b 7b 70 3f
       -0.0027928602053867574 0.004023892272044018
0002a0 0c 8d ae fd 71 65 e6 bf b4 56 e6 b4 24 96 96 bf
       -0.6998834566806251 -0.022057126561398646
0002b0 55 7a fe b7 18 12 e1 bf 4b 52 c6 8a 40 95 ab 3f
       -0.5334590524324293 0.05387307828928963
0002c0 73 8a 59 6b 51 ba dc bf df 7b 70 41 73 a6 f7 3f
       -0.4488719509446703 1.4781372600771119
0002d0 85 a4 66 a3 7e 90 db bf 25 36 2b 09 3d bc c0 bf
       -0.43069425541995826 -0.13074458072371545
0002e0 5f 97 c9 e1 6a 60 e2 3f 4c 8f 9a fb bd c3 ca 3f
       0.5742697153006978 0.20909857545222577
0002f0 08 ba 43 d2 4f 43 c7 3f 3a d8 80 d7 80 11 e0 bf
       0.18174169318031397 -0.5021366318749252
000300 c3 c9 0f 3e 8d 50 9a bf 79 85 b0 9c c9 b2 a3 bf
       -0.025697905457443115 -0.03847341573442526
000310 49 d6 01 88 d3 e7 c1 bf 2c 78 a1 6b 16 1a f2 bf
       -0.13988727704024687 -1.1313690380407122
000320 f5 26 31 10 ef 83 e2 3f 95 33 12 95 70 7a e7 3f
       0.5786052051782621 0.7336962615532793
000330 06 a4 ff 0e 75 be 24 3f 54 07 0d b3 ca a7 de bf
       0.0001582639592918879 -0.47899119840086724
000340 5e 61 3f 4a 41 fb e0 bf 6c 19 2d 59 a8 b4 e6 3f
       -0.5306707811496769 0.709552930996137
000350 5f 6d 67 7a 3e cc e9 bf 75 3f 6b 19 6a af fa 3f
       -0.806182135649049 1.6678257935454586
000360 ae 83 6a 77 78 51 bb bf 40 d8 5f 3e 2d e4 c0 bf
       -0.1067118922751564 -0.13196340127587014
000370 47 b4 74 26 18 cc f5 3f 88 b5 1b 8b 78 3d e1 bf
       1.3623277189428948 -0.5387537686307704
000380 46 58 bc b5 e2 e1 f2 bf 8d de 30 84 dd f6 fd bf
       -1.1801478480388297 -1.8727698482233877
000390 c0 d7 a8 27 75 65 ef bf 31 49 73 3e 30 05 e2 bf
       -0.9811349653816634 -0.5631333560689084
0003a0 80 67 bb 3b 16 59 a3 3f 26 6c 07 ec c6 ab b3 3f
       0.037789053718099375 0.07683985960413561
0003b0 81 29 d4 da 16 76 8b bf e3 af b3 d1 76 c0 d2 3f
       -0.013408831170200088 0.2929970786924498
0003c0 97 3c 49 49 a4 c6 f6 bf c0 b9 c1 12 39 c0 da 3f
       -1.4234965193498164 0.4179823573275847
0003d0 ea 5a 17 41 95 f7 e7 3f 95 0f e9 9d 1d 8f 97 bf
       0.7489725371659379 -0.023006880534253666
0003e0 98 65 1a 3c e5 fd a3 bf cd 85 24 17 da b0 da bf
       -0.03904644354515624 -0.417044184303532
0003f0 d7 91 5b 93 c6 e6 e5 3f d0 27 f0 fe 8b 89 d8 bf
       0.6844208601074183 -0.38339519401835975
000400 8c 97 45 b3 86 31 e6 3f 28 6f 2a aa 26 a2 e2 bf
       0.6935456754115292 -0.5822938273954366
000410 1d 0a 57 45 7a 87 f2 bf 76 e4 08 52 0f e6 fb bf
       -1.1580755909532237 -1.7436669544679524
000420 17 b1 03 80 c5 66 fb 3f f8 a1 d4 93 35 af a9 3f
       1.7125906944812124 0.05016486577580176
000430 ac d0 f7 bd 74 1c 92 3f 15 ca dd 91 86 e0 f1 bf
       0.017686676115730535 -1.117315835752952
000440 63 f1 b7 5b 1d 52 94 bf 03 e4 63 52 db 87 e2 bf
       -0.019844492648176792 -0.579084072988849
000450 5c 2d 28 19 67 42 c0 3f ee 23 3d f0 50 4e e2 bf
       0.1270264504276878 -0.5720600788273467
000460 b6 47 89 82 30 7c de bf ba b4 67 ff 44 f7 e0 bf
       -0.47632992503815375 -0.5301842678433311
000470 0f 70 b6 1c d2 b8 a3 bf 04 d4 4a 60 d9 a4 e7 bf
       -0.0385194454240435 -0.7388731842717111
000480 17 af 2c 1c 65 2c c2 3f 74 f5 4b d9 67 ff f0 bf
       0.1419798266955403 -1.0623548973229306
000490 00 43 33 6b e1 10 dc bf 24 88 23 b1 1e e4 a9 bf
       -0.4385303065183024 -0.050568541644466586
0004a0 5e 18 05 50 3e 0f 67 bf 4c c1 6a da c0 7e ea bf
       -0.002814885811093722 -0.8279728189427629
0004b0 43 a6 a9 b6 1a aa ba bf ba f2 3e 57 87 2f c6 3f
       -0.10415808639086159 0.17332546005299837
0004c0 01 dc b9 86 1f 37 fc 3f 7a 5b 57 0d 9e 88 11 3f
       1.7634578001723187 6.688561128185929e-05
0004d0 0e d3 09 56 2d fc db bf f2 76 98 2b 83 02 e1 bf
       -0.43726666834054206 -0.5315566874957922
0004e0 56 24 d3 aa 06 87 9b bf be 66 2e 46 41 bf e1 bf
       -0.02688227098113701 -0.5545965548255578
0004f0 b3 62 71 72 84 79 ef 3f cb c0 9f 62 15 b5 be bf
       0.9835836634839182 -0.11995061548055046
000500 68 66 fa e3 0b 3e 4a 3f 69 0b 79 79 ce 55 f7 bf
       0.0008008535441661026 -1.4584488625557361
000510 ad e2 d5 6b 9d 8a d0 bf ef b3 f9 73 65 74 ec bf
       -0.25846038370904517 -0.8892085328239981
000520 36 f8 61 dd c1 3f ec bf f6 bc ca db 16 6c e1 bf
       -0.8827828716164337 -0.5444444935618822
000530 02 28 d6 d4 4e 3d d4 bf bf 17 bf 7f c6 72 d3 bf
       -0.31624193939990175 -0.3038803336643205
000540 b8 6a 3e 87 b1 a6 a9 3f d8 13 49 30 24 0d f2 3f
       0.050099895247702475 1.1282083402777427
000550 fe 85 c3 09 f4 d2 f2 bf 5b 08 dc 51 b6 a8 ef bf
       -1.1765022641560559 -0.9893447493379982
000560 e9 45 ed 0b 77 11 ec 3f f9 09 eb c0 8e 46 e4 bf
       0.8771319611498117 -0.633612992089467
000570 c6 64 37 5e e5 39 c0 bf a3 9a cf 9f 4d 2c 8b 3f
       -0.1267668447533536 0.013268095435660604
000580 70 80 11 73 4a 39 dc bf fa 5e c3 ea 70 ba e2 3f
       -0.44099675404687044 0.5852589211671948
000590 4c 29 20 6f 60 75 f6 bf 2a 68 dc 34 c9 e5 ef bf
       -1.4036564198346069 -0.9968000442925178
0005a0 74 dc 60 4b 8e 5f d6 bf b3 6f 9e 60 54 51 ea 3f
       -0.3495822654835543 0.8224279296004994
0005b0 56 f8 7b 9a a4 7f f1 3f 05 0f 90 41 6c 5c f9 bf
       1.0936628374615984 -1.5850641785663708
0005c0 08 ca 2c a9 73 a1 ae bf d6 90 eb 91 fe f5 b6 bf
       -0.05982552948116299 -0.0896910768747746
0005d0 1c e3 8f e1 ab f5 fd bf e5 ee a5 d4 55 e4 a5 3f
       -1.8724783717172562 0.042757684906033856
0005e0 9a 4e 79 3a ef 74 dc bf cc 42 ab 7b 30 76 fb 3e
       -0.44463711462342703 2.6189496319886302e-05
0005f0 e1 5e 00 8d c0 19 d8 bf f4 2e 95 c0 a5 ac ef bf
       -0.37657178659126883 -0.9898251305944243
000600 4c c2 92 5a b2 22 f2 3f 2d 45 ac 87 c8 c2 92 3f
       1.1334708726900713 0.018321164398973955
000610 0d 09 c4 dc 2d f1 f2 3f 2e 71 99 1c 87 10 d5 3f
       1.1838816283857938 0.32913377564342994
000620 09 fd f3 0a d8 85 e8 bf ee c2 5c b6 c8 47 dd bf
       -0.7663383687903728 -0.45750634964774306
000630 ef 58 df dd 9b f4 95 3f 62 3d ac 20 86 a2 97 bf
       0.021440921227473927 -0.023080917114439166
000640 54 7c 10 f6 21 a6 f9 3f 0f 87 cc ba d8 d5 c2 bf
       1.6030597316637527 -0.1471510803322009
000650 e0 f4 8e 0e 01 d6 e7 bf 0e d3 7c fc da d0 e2 bf
       -0.744873550829336 -0.5879950457952832
000660 30 6a c3 d6 01 25 11 bf b4 c7 6e 11 bf 97 dd bf
       -6.540130351898803e-05 -0.4623868627778578
000670 8b 44 45 fb 03 5d e3 bf 42 f8 1c 5a b9 8c f8 bf
       -0.6051044376018963 -1.5343564529462275
000680 57 f8 cc c0 24 c9 e5 3f f0 7e dc 48 00 b4 dc bf
       0.6808036580694176 -0.4484863959823846
000690 1c 2d 50 c6 0e c3 91 3f 9e ca 8c 7c 7e 2a 60 3f
       0.01734564862640041 0.001973387760153613
0006a0 e9 90 ce be 5f f0 f5 bf 40 5d 2a 91 9b 66 d8 bf
       -1.371185059871147 -0.38126267601315433
0006b0 15 e7 f5 fe c3 aa de bf 62 b1 8c 4e 8d 7c e2 3f
       -0.47917270563594744 0.5777040990993039
0006c0 ba 61 6b 8e 07 c9 d8 bf d4 a9 7c fb 1f 0a e0 bf
       -0.3872698679747618 -0.5012359535078823
0006d0 48 d0 64 bd 8e ea f2 3f 16 03 a9 67 9e c0 4e 3f
       1.182265033549827 0.0009384892903839561
0006e0 c6 e5 16 62 f6 e9 e4 bf 3b 4f 65 cc c8 bc d8 bf
       -0.6535598674592442 -0.3865224834491873
0006f0 96 79 ee 5c b7 e0 ef 3f 41 09 96 c9 77 73 f3 3f
       0.9961811842984385 1.2156904100853156
000700 94 78 05 62 4f 9a 61 3f 53 82 fe df 24 a8 a1 bf
       0.002148776097029412 -0.034485962241210054
000710 e1 0c a2 46 2b 3e b3 bf b5 db a2 78 21 d3 db bf
       -0.0751673743671293 -0.4347613981330441
000720 48 a5 a1 e1 cf ac c0 3f 38 82 26 31 58 d0 ec 3f
       0.13027380482825834 0.9004326782197216
000730 d7 37 fe f2 30 c6 e5 3f 59 50 26 1d 2b 21 f2 3f
       0.6804432626684002 1.1330977572115641
000740 76 61 0d 30 04 7e f9 bf bc 60 00 e0 1d a5 e6 bf
       -1.5932657124559149 -0.7076558470753507
000750 ab 50 57 67 94 cf ce 3f 2d 94 df b2 08 77 93 bf
       0.24070982976866637 -0.019008766095698505
000760 49 51 af 6f 6f db be bf b0 9d 5c 79 48 a0 e4 3f
       -0.12053581692390937 0.6445658083293235
000770 d8 4a c9 70 ba ca 89 bf e8 24 bd 57 2f e4 e4 bf
       -0.012593704764332456 -0.6528546060227685
000780 24 d7 72 0a 6b 43 93 bf 2b 6b 43 cc 44 8f e2 bf
       -0.018811867249232908 -0.5799888600844033
000790 b3 48 a6 12 2d 5f d7 bf 02 ad 59 4d 42 30 f0 bf
       -0.3651840860485535 -1.0117819806571906
0007a0 71 05 fc 7e bf a3 a3 bf 9e 9a 3f 63 91 55 e7 bf
       -0.03835867333510635 -0.729195302815089
0007b0 50 16 f5 61 41 91 00 c0 0d d2 12 ae f2 db f7 bf
       -2.070925488750426 -1.4911982345339567
0007c0 b7 f4 21 72 24 df d9 bf 50 ac 27 70 f9 7b a6 3f
       -0.40424452920690207 0.043914599362175566
0007d0 5e c8 12 15 a4 59 a8 3f 35 65 f1 0f 5d 09 e9 3f
       0.047558906147415966 0.7823930083642724
0007e0 9d 67 2c 3d 34 39 00 c0 cc a4 bc 9c 69 f9 f4 3f
       -2.0279316691566707 1.310891735318637
0007f0 a6 1d eb 98 47 a1 e5 bf 39 47 18 70 e9 57 25 bf
       -0.6759374605834878 -0.00016283726294879524
